_________________________________________________________________
Layer (type)                 Output Shape              Param #   
=================================================================
Input_Layer (InputLayer)     (None, 240, 300, 1)       0         
_________________________________________________________________
conv2d_1 (Conv2D)            (None, 240, 300, 32)      320       
_________________________________________________________________
conv2d_2 (Conv2D)            (None, 240, 300, 32)      9248      
_________________________________________________________________
max_pooling2d_1 (MaxPooling2 (None, 120, 150, 32)      0         
_________________________________________________________________
conv2d_3 (Conv2D)            (None, 120, 150, 64)      18496     
_________________________________________________________________
conv2d_4 (Conv2D)            (None, 120, 150, 64)      36928     
_________________________________________________________________
max_pooling2d_2 (MaxPooling2 (None, 60, 75, 64)        0         
_________________________________________________________________
conv2d_5 (Conv2D)            (None, 60, 75, 128)       32896     
_________________________________________________________________
conv2d_6 (Conv2D)            (None, 60, 75, 128)       65664     
_________________________________________________________________
max_pooling2d_3 (MaxPooling2 (None, 30, 37, 128)       0         
_________________________________________________________________
flatten_1 (Flatten)          (None, 142080)            0         
_________________________________________________________________
dense_1 (Dense)              (None, 128)               18186368  
_________________________________________________________________
Output_Layer (Dense)         (None, 6)                 774       
=================================================================
Total params: 18,350,694
Trainable params: 18,350,694
Non-trainable params: 0
_________________________________________________________________
None
Train on 817 samples, validate on 545 samples
Epoch 1/100
817/817 [==============================] - 12s 14ms/step - loss: 65.9022 - mean_squared_error: 6769.9533 - val_loss: 14.2965 - val_mean_squared_error: 321.1820
…
