…
callbacks = [wigth, learning_rate_reduction]


############################ Data Augmentation ############################

training_samples = X_train.shape[0]
validation_samples = X_val.shape[0]


history = model.fit(X_train, y_train,
                    validation_data = [X_val , y_val],
                    epochs = epochs, verbose = verbose,
                    callbacks= callbacks)




_________________________________________________________________
Layer (type)                 Output Shape              Param #   
=================================================================
Input_Layer (InputLayer)     (None, 300, 240, 1)       0         
_________________________________________________________________
conv2d_1 (Conv2D)            (None, 300, 240, 32)      320       
_________________________________________________________________
conv2d_2 (Conv2D)            (None, 300, 240, 32)      9248      
_________________________________________________________________
max_pooling2d_1 (MaxPooling2 (None, 150, 120, 32)      0         
_________________________________________________________________
conv2d_3 (Conv2D)            (None, 150, 120, 64)      18496     
_________________________________________________________________
conv2d_4 (Conv2D)            (None, 150, 120, 64)      36928     
_________________________________________________________________
max_pooling2d_2 (MaxPooling2 (None, 75, 60, 64)        0         
_________________________________________________________________
conv2d_5 (Conv2D)            (None, 75, 60, 128)       32896     
_________________________________________________________________
conv2d_6 (Conv2D)            (None, 75, 60, 128)       65664     
_________________________________________________________________
max_pooling2d_3 (MaxPooling2 (None, 37, 30, 128)       0         
_________________________________________________________________
flatten_1 (Flatten)          (None, 142080)            0         
_________________________________________________________________
dense_1 (Dense)              (None, 128)               18186368  
_________________________________________________________________
Output_Layer (Dense)         (None, 6)                 774       
=================================================================
Total params: 18,350,694
Trainable params: 18,350,694
Non-trainable params: 0
_________________________________________________________________
None
Train on 475 samples, validate on 318 samples
Epoch 1/100
475/475 [==============================] - 10s 20ms/step - loss: 84.9153 - mean_squared_error: 9371.7624 - val_loss: 25.8322 - val_mean_squared_error: 1248.9481
…
