…
callbacks = [wigth, learning_rate_reduction]


############################ Data Augmentation ############################

training_samples = X_train.shape[0]
validation_samples = X_val.shape[0]


history = model.fit(X_train, y_train,
                    validation_data = [X_val , y_val],
                    epochs = epochs, verbose = verbose,
                    callbacks= callbacks)












_________________________________________________________________
Layer (type)                 Output Shape              Param #   
=================================================================
Input_Layer (InputLayer)     (None, 240, 300, 1)       0         
_________________________________________________________________
conv2d_8 (Conv2D)            (None, 240, 300, 32)      320       
_________________________________________________________________
conv2d_9 (Conv2D)            (None, 240, 300, 32)      9248      
_________________________________________________________________
max_pooling2d_4 (MaxPooling2 (None, 120, 150, 32)      0         
_________________________________________________________________
conv2d_10 (Conv2D)           (None, 120, 150, 64)      18496     
_________________________________________________________________
conv2d_11 (Conv2D)           (None, 120, 150, 64)      36928     
_________________________________________________________________
max_pooling2d_5 (MaxPooling2 (None, 60, 75, 64)        0         
_________________________________________________________________
conv2d_12 (Conv2D)           (None, 60, 75, 128)       32896     
_________________________________________________________________
conv2d_13 (Conv2D)           (None, 60, 75, 128)       65664     
_________________________________________________________________
max_pooling2d_6 (MaxPooling2 (None, 30, 37, 128)       0         
_________________________________________________________________
flatten_2 (Flatten)          (None, 142080)            0         
_________________________________________________________________
dense_2 (Dense)              (None, 128)               18186368  
_________________________________________________________________
Output_Layer (Dense)         (None, 6)                 774       
=================================================================
Total params: 18,350,694
Trainable params: 18,350,694
Non-trainable params: 0
_________________________________________________________________
None
Train on 475 samples, validate on 318 samples
Epoch 1/100
475/475 [==============================] - 10s 21ms/step - loss: 102.6944 - mean_squared_error: 11798.1834 - val_loss: 38.4665 - val_mean_squared_error: 2193.5400
…
